Exercise11/Homework11/fashion_mnist_model.tflite (tflite, 903536 bytes, 8 tensors)

sequential/conv2d/BiasAdd/ReadVariableOp f4 [32]
00000000: 4359 b5bb 2340 8bbb 5c0b 8b3b 8c27 37bc
00000010: 78df c8bd 205d 2ebc 9c6a eabc fdfe 9bbc
00000020: 7200 27ba 63d1 8939 4fe6 68bc 8c85 debb
00000030: 4ff4 843a e772 07be f5de 94bd 891d f83d
00000040: f7b8 07bc 6d44 d53d 6bf6 bcbb 4415 89bd
00000050: a38d 573e 27a8 b13d 76d1 a2bb bb63 93bc
00000060: e0f2 373b 7eaf f5bb 9b3e aaba 20bf dbbc
00000070: cd78 943c 99ec 043d da62 373c fb89 1e3c
-0.0055343225 -0.004249589 0.0042432975 -0.011178862 -0.09808248 -0.01064232 -0.028615288 -0.019042486
-0.0006370611 0.00026286682 -0.014215066 -0.0067908224 0.001014361 -0.13227426 -0.07269088 0.121150084
-0.008283845 0.10413442 -0.00576668 -0.06693509 0.21050124 0.08674651 -0.0049688173 -0.017991891
0.0028068349 -0.007497727 -0.0012988629 -0.026824534 0.018124009 0.0324522 0.011193002 0.009676452

sequential/conv2d_1/BiasAdd/ReadVariableOp f4 [64]
00000000: 8937 573d 8ece 4cbc f74b 2dbe b60c a0bd
00000010: 1472 44bb a26c 23bb 0e63 ec3d 0346 f9bd
00000020: a00e 173e d056 523d 590f 383e a893 473a
00000030: d285 88bc 194b 5f3d 8ad2 83bb 39a7 543e
00000040: 0c69 223c 14d8 bbbc 903c 3d3c c32e 8dbd
00000050: f0dd 183e cd3a 443d 55c4 f53c 43ff f1bc
00000060: 7c40 423e f3b1 163e 48fd 4a3d a141 6b3c
00000070: 36a4 05bd 9225 41bd 85d4 f73d 162d 953c
00000080: d95b b23d 2a7b afbd 3b38 5c3d e308 9ebd
00000090: d1ab 3a3e 93a7 90bd eb83 7cbc fbfe 13be
000000a0: ca11 92bd 52d9 8fbd 6834 9c3c 5dd0 0cbd
000000b0: df65 69bc 2047 6dbd 46db 14be 4eba 93bc
000000c0: 6ff1 dd3d 347e b33e 795f a2bd ee0c b7bc
000000d0: 7679 febd 4d01 2bbe 0dc8 d43c 8dcf 49bc
000000e0: 59c9 583e d537 623d 1473 32bb dae7 623e
000000f0: 1b03 123e 4897 dbbd 0b71 09bd cd02 2f3b
0.052543197 -0.012500418 -0.1692351 -0.078149244 -0.0029975222 -0.0024936576 0.11542331 -0.12171557
0.14751673 0.051352322 0.17974605 0.000761325 -0.016665373 0.054514978 -0.004022901 0.20766915
0.00991274 -0.022930183 0.011550084 -0.06893685 0.14928412 0.04790764 0.030000845 -0.029540664
0.18969911 0.1471632 0.049557954 0.014358909 -0.032627307 -0.04715497 0.12101082 0.018209975
0.08708925 -0.085684136 0.053764563 -0.07716539 0.18229605 -0.07063212 -0.015412311 -0.14452736
-0.07132299 -0.070238724 0.019067958 -0.0343784 -0.014245479 -0.05792916 -0.14536771 -0.018033173
0.108370654 0.35057223 -0.07928366 -0.022345033 -0.124255106 -0.16699715 0.025974298 -0.01231755
0.21170558 0.055229027 -0.0027229236 0.22158757 0.14258997 -0.10722214 -0.03355507 0.002670455

sequential/conv2d/Conv2D f4 [32, 3, 3, 1]
00000000: 2ca9 01be 193e 923e e2a8 30be 95d0 47be
00000010: b557 1d3e 9f50 ad3d 1958 36be fe20 5c3d
00000020: 002c 013e 82bf f3bd 2ede 5b3e c1ae 09be
00000030: 9c29 b2bd 8904 b03e 02d3 8bbe 0cdd e03d
00000040: a652 233e 099e 5fbe 1a82 afbd ff77 abbe
00000050: cc8e 26be 4cc5 ce3d 7f92 323e 931c 183e
00000060: 1d70 253d 9d86 853d 1784 bd3d 3038 9bbd
00000070: b290 3a3d 206a f8bd 476c 55be a9da f23d
00000080: 0b59 0f3d 7f3d e8bd 5b20 5c3e 2d7e c23d
00000090: 4ff5 ffbd db4e da3d fe2f 253e f9c5 8c3d
000000a0: 5de1 1c3e 22b8 8abd d06c d13d 3935 aabd
000000b0: 5afc 8dbd aef8 14be 4f50 cb3d 7f1e b33d
000000c0: 3434 bbbe 1e35 583e 9bc3 263e aaac 7ebe
000000d0: 3c55 743e 5090 dbbc 7dcf 1e3e 3391 533e
000000e0: d2eb 2e3e 7489 a43c a09e af3b 22ea a13a
000000f0: dd71 c7bd bfb3 cebd 3568 c9bd 41b7 8dbd
00000100: 773c 763e cf5e 13be cb34 afbd 872e e53d
00000110: a269 833e 357f 0e3e 8e05 bdbe 70cf 70bd
00000120: 53aa 963e a868 9abe 4a04 44be 7cb0 463e
00000130: 150f 193c 073c 3abd d3f6 853d b9b5 a7bd
00000140: c0e4 803d 8a5c 06be 0e19 583e deff 543d
00000150: dc4a a73c 0db2 823d 49a8 96bd 69c8 93ba
00000160: b65f 063d ea61 29be b94c 76be dcf9 a73d
00000170: 66f0 e33d 726e 58be 945d 033e 8eba 833d
00000180: a57e 903e 6f06 a0bd 9d90 34be bc9d 25bc
00000190: 229b a23c 672f 213e 128c 4bbd 17e5 073e
000001a0: 850b 4ebe fa1a 0b3e f305 f63d 5e5f 9fbe
000001b0: 5b62 323e 6071 4e3e 494b 20bd fdd2 e2bc
000001c0: b19a c1bd 9bc4 5bbe 3a79 a4bc d4da 7c3d
000001d0: 5030 98bd 412e e93d 0195 113d 55ec cb3d
000001e0: 4556 573c d6a1 c93d 3ed0 0fbd a157 17be
000001f0: 0e37 9c3d 8dc6 093c a613 d0bd de77 14be
00000200: beb3 153d 9bc4 ee3c 90da d13b 2667 67bb
00000210: cc85 44bd ddbe d13c cc9b 373d 6b61 1abf
00000220: 79a3 9dbf df49 17bf 8a21 5c3d 9a1b c6bd
00000230: 66b9 0dbc 31ce 9a3d 8835 943d 2675 943e
00000240: e889 4fbe ec90 f3bc f530 823e 3f03 81be
00000250: 6c21 7fbd dc9c 2e3e 5457 fd3c 482b 883d
00000260: 9241 b4bc f416 ddbd 95e7 2c3e 0c01 893e
00000270: a01c acbc e0b2 993d 49cf 0ebe ea76 183e
00000280: 50f7 d2be d239 91bf e90c 903e 7bbf 80be
00000290: 50c4 863d ce00 463e c2b3 8cbe 6371 f43d
000002a0: ff11 113e 53ba 19be 1203 eebd e697 463e
000002b0: bbc3 933d 2f78 89bc 5088 3f3e 25aa 2abe
000002c0: 0caa 26be 8fd2 693d 1450 51be c2ed 0e3e
000002d0: 9d17 53bf 57f5 cebe 81e2 433e e96c 59bf
000002e0: e6ae adbe 9d24 253c 2bb3 cebd 7bb8 0fbe
000002f0: e447 cd3d f871 3abf 7a94 55be 16e7 57be
00000300: 9678 8bbe 1fa0 06bd 7720 5b3e a193 edbe
00000310: 9f93 d23d b715 9abd 64c4 6bbe 52b7 1ebd
00000320: 22b5 023e bbbf 353e 67bb 21be d750 d23b
00000330: 49d9 babd d295 3a3e d403 26be 946a db3d
00000340: 92c3 7e3e c115 bbbe afe1 1d3c c511 35bc
00000350: 1fb6 d6bc 0123 b9bc 0fa5 a43d 8037 6fbd
00000360: 8f75 5fbe cc63 cbbe f057 1cbd 0aaa 9c3e
00000370: 7088 c53d e494 823e 410c 0a3d efac 24bd
00000380: 717f aebd 8de4 5abe 61a9 093e aade a63d
00000390: 4c76 c2bd ea05 0bbd e664 e93d 71e3 12bd
000003a0: 5d25 21be 04d1 373e fccb 9ebb 0347 183e
000003b0: 85f4 88bd 91ec 593d d407 d73d 73c2 ea3d
000003c0: 51bd 3bbe 5a4c 29be 480b 9bbd 9a75 d23d
000003d0: d3dd 6abe 5297 303e 34ac d4bc 4697 4ebe
000003e0: 3bc2 7f3e 8df2 f4bd 03e9 09be f04f 6c3e
000003f0: 4468 5a3e 9685 53bc 7adf 56be 0db7 8c3d
-0.1266219 0.28563002 -0.17251924 -0.19513161 0.15365489 0.08462643 -0.17807044 0.0537424
0.12614441 -0.119017616 0.21471474 -0.1344557 -0.086993426 0.3437846 -0.27309424 0.10979661
0.15949497 -0.2183763 -0.08569737 -0.33489987 -0.1626541 0.10096225 0.17438696 0.1485465
0.040390123 0.06519816 0.0925371 -0.07579076 0.04554815 -0.12129617 -0.20842086 0.11858112
0.034997027 -0.113398544 0.21496718 0.09496722 -0.12497961 0.10659572 0.16131589 0.06873698
0.15320344 -0.06773402 0.102258325 -0.08310933 -0.06932898 -0.14547989 0.09927427 0.08746051
-0.36563265 0.21114013 0.16285555 -0.24870554 0.2386064 -0.026802212 0.15508838 0.20660858
0.17082146 0.020085074 0.0053594857 0.0012353102 -0.097385146 -0.100928776 -0.09834329 -0.069197185
0.24046503 -0.14391635 -0.08554991 0.11190515 0.2566653 0.13915713 -0.369183 -0.058791578
0.29426822 -0.3015797 -0.19142261 0.19403261 0.009341975 -0.045467403 0.065412186 -0.08188958
0.062936306 -0.13121238 0.21103308 0.052001826 0.020421438 0.06381617 -0.073563166 -0.0011274937
0.03280612 -0.16541258 -0.24052705 0.08201954 0.11129837 -0.21135882 0.12828666 0.06432067
0.28221622 -0.07813727 -0.1763329 -0.010108408 0.019849364 0.15740739 -0.04969413 0.13270985
-0.20121582 0.1358451 0.120128535 -0.31127447 0.17420332 0.20160437 -0.039134298 -0.027688498
-0.09453333 -0.21461718 -0.020077337 0.06173213 -0.0743109 0.11385775 0.03554249 0.09957186
0.013143127 0.09845321 -0.035110705 -0.14779522 0.07627688 0.008409155 -0.10159998 -0.1449885
0.03654837 0.029146483 0.0064042285 -0.0035309284 -0.04797916 0.025603706 0.044826314 -0.603049
-1.2315513 -0.59097093 0.053742923 -0.09673233 -0.008650159 0.07558859 0.07236773 0.28995627
-0.20267451 -0.02973219 0.25427976 -0.2519779 -0.062287733 0.17052025 0.03092543 0.0664888
-0.022003923 -0.107953936 0.16885217 0.2675861 -0.021009743 0.07504821 -0.1394626 0.14889112
-0.4120431 -1.134577 0.2813485 -0.25146088 0.065804124 0.19336244 -0.27480894 0.11935689
0.14167021 -0.15012483 -0.11621679 0.19393882 0.07215067 -0.01678094 0.18704343 -0.16666467
-0.16275805 0.05708557 -0.20440704 0.13957885 -0.82457906 -0.40421554 0.19129373 -0.8493181
-0.339225 0.01007953 -0.10092767 -0.14035217 0.10023478 -0.7283015 -0.2085742 -0.21084246
-0.27240437 -0.032867547 0.21399103 -0.46401694 0.10282063 -0.07523673 -0.23024136 -0.038749047
0.12764409 0.1774892 -0.15794145 0.0064183283 -0.09123475 0.18221214 -0.16212398 0.107136875
0.24879292 -0.36540034 0.009636327 -0.0110516 -0.026209889 -0.022599699 0.08039295 -0.05840254
-0.21822189 -0.39724576 -0.0381698 0.3059848 0.09645164 0.2550422 0.033703092 -0.040203985
-0.08520401 -0.21376248 0.13443519 0.081479385 -0.094952196 -0.033941187 0.11396198 -0.035861436
-0.15736909 0.17950827 -0.004846094 0.14870839 -0.066872634 0.053204123 0.1049954 0.114628695
-0.18333937 -0.16533032 -0.07570511 0.10276337 -0.22936182 0.17245224 -0.02596102 -0.20174894
0.24976437 -0.119603254 -0.13467793 0.23077369 0.21328837 -0.012910267 -0.20983687 0.06870852

sequential/conv2d_1/Conv2D f4 [64, 3, 3, 32]
00000000: 0875 48be f7af 4f3c fa6a 0abe d62f 3dbe
00000010: 1e33 7abd 0e5c 35be 44bb 7d3d aa0e 29be
00000020: 4b89 53be bec8 7b3d e178 f5bd e12c 1c3d
00000030: 4dab f9bd d786 56bd 4a71 8cbd 34ed e13d
00000040: e0a9 53bd bac6 543d 8424 a8bd c567 94be
00000050: 66ae 12be 371e 3fbe 4c55 2dbc 8e0c f8bd
00000060: 5353 48bc 7bad 90bd bf50 86bd 73de 2cbd
00000070: 5673 53be eecb 3a3d f7a5 ab3c d449 97bd
00000080: 88c5 f93d b9ef a53d 65d7 103b 99f0 213e
00000090: 6a43 d03d 68e2 cf3d 6508 ee3c f3df 7b3e
000000a0: d8c0 1bbe 75d3 3abd 42b5 a33d 104c f4bd
000000b0: 8a45 8cbd 0d1f c0bc 8c29 873d 8bd1 88bd
000000c0: d910 803d ca26 5fbe de0e 913c 6ce1 123e
000000d0: 039c 053e d0ad cd3e a263 0c3d 711b 6e3c
000000e0: ce6e a0bd 673f 253d 9bdc 873d 752f e8bc
000000f0: a66a a9bc 92a9 0bbd 055c c53c 9c8b 5dbd
00000100: 0dd2 103c cd8a 963c 354c 323d 690c 933d
00000110: 63d4 903d 6a93 7a3d 767a 80bc 3f39 18bd
00000120: 7eb7 3cbd 6673 213d 006b bbbd 3b5a 97bd
00000130: b7c5 ef3d 26cc 963d 6df6 e93d a87e 40be
00000140: 7ce8 02be 5de6 26bd f8ec 17be 1e90 9c3d
00000150: 7a0a 3cbe 97f8 d4bc bdf2 5d3d ef14 8d3d
00000160: a0b8 1abd 029c 49be dc9b 0dbe d659 debc
00000170: 4baa ddbd 346a 03bd ac50 b3bd 4d7d 863d
00000180: e017 923d ce1b b7bd 8eb3 283c aa16 ebbd
00000190: cda8 14bd 7b32 bfbd 06e6 52bd 0e2f 62bd
000001a0: 8a9e ab3d 6ec1 9abd b4e2 bdbd 858b abbd
000001b0: c2c4 d0bd 9346 5d3d 05df 6fbd c63f 263e
000001c0: 88c0 3cbe 334d f33d d412 05bd 8472 38be
000001d0: 1db3 5ebe a635 253d 2660 a23d 347e e03d
000001e0: 40f9 d7bc 9a08 34bd 7808 4b3d f313 c63c
000001f0: bb06 9f3d 8bd8 063e 6728 373d a46f 0dbd
00000200: 5f06 0f3e 1672 b1bc 0401 393e fea9 cf3d
00000210: 5582 103d a074 1a3e 1c37 3bbc 0830 113d
00000220: 02d4 163d 8f02 993d 9feb 61bd d9b4 65bd
00000230: c347 02be 869d c53d ccf1 b43d 9cf8 0fbd
00000240: e739 94bb 7ee0 ddbd 3e2b d03d 9d52 f33c
00000250: a673 843d d384 593d 643e 0abd 2a2c ddbc
00000260: 60ee 093e 4e56 e63d 8e42 813d 5612 e33d
00000270: 42ce 99be 0590 cfbd 6624 773b 745e 5cbe
00000280: febf 09bd 2488 823c c180 dbbb acd8 05be
00000290: 0340 0e3d 404c 20be 30f1 093e 5cee e03d
000002a0: 177f 283d 778a 7e3c 4514 1abd 80a3 ab3d
000002b0: 797b adbc 1c08 123c 9025 ae3c 4e06 093d
000002c0: c4b7 66be 5111 b43d 2d96 a3bd a359 aabd
000002d0: 58db 08be 3d24 6dbe 1361 88bd 72e8 7ebd
000002e0: 4cea 2cbe bbdb 94bd 35ed 323d dd49 87be
000002f0: 2322 2bbd 556a f93c 61ba 113d 82a1 cfbc
00000300: ccc1 3abe 1d02 833e cfe7 e83c 87c6 f9bc
00000310: 4082 b4bd 5e84 95bd 6305 d73c 51f4 10be
00000320: a291 c0bd 56af a5bd 62b2 b93d 48ea ef3d
00000330: 1b91 50bd 76f7 31bd 1428 df3a d48e ee3d
00000340: e503 773a 0102 2ebe 8881 b6bd 3208 61bd
00000350: 29eb 8cbd a84f 5fbd 4995 233e b814 83bc
00000360: e89e 15bd 8c6e 8abc 6e23 21be 99cd e2bd
00000370: 8e67 09be 39c3 5dbd d8e6 52be 9fc0 853d
00000380: 4567 0d3e fcd1 023e 5385 ddbd fa0c 0fbc
00000390: 8bfc 5a3d 785c 2b3e a442 84bc f7b9 023e
000003a0: 6c8c c43c f20d b03d 5c62 0cbd 9c13 803e
000003b0: 6df3 3f3d 151f 0b3c b965 76bc 6533 c9bd
000003c0: 1fb2 fa3d d6d7 53bd 7234 f63c a915 bb3d
000003d0: 8112 913d d157 4b3d 94bb 0d3d 9ac9 81bd
000003e0: d2ee 9abe 7c6c 013e 029b c83d de31 bbbc
000003f0: 874f 1cbd fb0a 3c3c b4a6 033d 5ca1 5c3d
-0.19575894 0.012676231 -0.13517371 -0.18475279 -0.061083905 -0.17710897 0.06194617 -0.165095
-0.20657842 0.06147074 -0.119859464 0.038128737 -0.12190876 -0.052374687 -0.06857546 0.11031571
-0.051675677 0.051947333 -0.0821009 -0.2898542 -0.1432434 -0.1866387 -0.010579418 -0.121117696
-0.012226897 -0.07064339 -0.0655837 -0.04220433 -0.20649466 0.04560464 0.020953162 -0.073871285
0.12195879 0.08102364 0.0022101041 0.15814437 0.10169108 0.101506054 0.029056737 0.24597149
-0.15210283 -0.045611817 0.079935566 -0.1192857 -0.06849201 -0.023452306 0.06599721 -0.06680592
0.062532134 -0.2179214 0.017707285 0.14343804 0.13047795 0.4017167 0.034274705 0.01453291
-0.07833634 0.04034367 0.06633874 -0.028342942 -0.020680737 -0.03409726 0.02409173 -0.05408822
0.0088391425 0.018376732 0.043529708 0.071801014 0.070717596 0.06117574 -0.015683394 -0.03716397
-0.04607343 0.039416693 -0.09151268 -0.07390257 0.11707633 0.07363157 0.11423955 -0.18798316
-0.12783998 -0.040747035 -0.1483649 0.07644676 -0.18363371 -0.025997443 0.05418657 0.068887584
-0.03777373 -0.19688419 -0.13828987 -0.027142446 -0.108234964 -0.032083705 -0.08755621 0.06566868
0.0713346 -0.0894085 0.010296715 -0.11478932 -0.036293793 -0.093358 -0.0514889 -0.055220656
0.08379848 -0.07556425 -0.09271756 -0.083762206 -0.101937786 0.054022383 -0.058562297 0.16235265
-0.1843282 0.11879959 -0.03248866 -0.18012434 -0.21748014 0.040334366 0.07928495 0.10961571
-0.026363969 -0.043953516 0.049568623 0.024179434 0.077649556 0.13168542 0.044716265 -0.034530297
0.13967274 -0.021660846 0.18066794 0.10139845 0.035280544 0.15083551 -0.011426713 0.035446197
0.03682328 0.07471191 -0.055156346 -0.056080673 -0.12722687 0.09649186 0.088351816 -0.0351492
-0.004523504 -0.10833834 0.10164498 0.029702479 0.06467371 0.053105187 -0.033750907 -0.026998598
0.13469839 0.1124693 0.063115224 0.11087482 -0.30040175 -0.101348914 0.0037710904 -0.21520406
-0.033630364 0.015934058 -0.0066986983 -0.13070935 0.034729015 -0.15654087 0.13470912 0.109829634
0.041136827 0.015535942 -0.037616987 0.083807945 -0.02117704 0.008913066 0.021258146 0.03345328
-0.22531039 0.08792365 -0.07987628 -0.08317878 -0.13364923 -0.23158355 -0.066591404 -0.062233396
-0.16886252 -0.07268473 0.04368325 -0.2642354 -0.041780602 0.03044621 0.035578135 -0.025345568
-0.1823799 0.2558755 0.028430847 -0.030490173 -0.08813906 -0.07300638 0.026247686 -0.141557
-0.09402777 -0.08090083 0.09067227 0.117146075 -0.050919633 -0.043448888 0.0017025494 0.11648336
0.00094228826 -0.16992952 -0.08911425 -0.054939456 -0.06880791 -0.054519325 0.15974917 -0.01600109
-0.036528498 -0.016898416 -0.15736172 -0.11074371 -0.13418409 -0.054141257 -0.20595872 0.0653088
0.13808925 0.12775415 -0.10816445 -0.008731121 0.0534635 0.16734493 -0.016145058 0.12766252
0.02399274 0.0859641 -0.03427349 0.2501496 0.04686301 0.008491297 -0.015038901 -0.09824256
0.12241005 -0.05171951 0.030054305 0.09134991 0.070836075 0.049644295 0.034602717 -0.063372806
-0.3026033 0.1263904 0.097951904 -0.022850927 -0.03816178 0.011477227 0.032141402 0.05386482

sequential/dense/BiasAdd/ReadVariableOp f4 [128]
00000000: 1453 33bd 0cac b43d 6084 cebb eaf7 86bc
00000010: 82bd a63d fd26 c93d 1700 08bd bd04 b4bc
00000020: 24c6 9c3d 347a 3e3e 305b 44bc b514 a63d
00000030: ef51 ae3d 5309 aebc e9ff 743d 8e04 ad3d
00000040: aac4 9a3c 1e8c d33d c7a7 db3d 217f 813d
00000050: f5c9 273e 24f4 a7bc c2d3 33bd bbc0 403d
00000060: 5cae b73d 8bc6 81bd 517a 263c 285d 28bd
00000070: cefc 853d 9328 33bd a6e1 0fbd 9350 183e
00000080: 8b89 a23d 6528 823c 7257 34bc 36fe f2bb
00000090: b7ab fbbb 3c70 c93d 6114 19bd 145a 823d
000000a0: b7f8 263e a91a bebc e282 0d3e 3dda b73c
000000b0: 89c6 aebc fd00 6abc a95e dbbb c95f 5dbd
000000c0: 79bf 16bc 9204 2d3d 69e5 6ebd a6e8 893d
000000d0: 8b8b 7e3d b54c 1d3d 2c23 a8bc 5359 043e
000000e0: 37dd 0ebd 1acb 88bc f0a5 6a3b 6dfc 02bd
000000f0: 1bdb d1bb baf8 b03d 4512 8dbc 9d6b 133d
00000100: 9ae3 853d 8ffa 18bd f0f3 123e 6007 af3d
00000110: 474c 063d 71d9 aebc 61c6 2e3d 1efb c6bc
00000120: 7f7c bdbc f756 07bc b4dc cf3c 34f3 2bbd
00000130: 3cff 013e c5ce d4bc 4cba 68bc f92c 0b3e
00000140: 89a3 e9bc 7cbc ddbc 3714 213d 2e3f bb3d
00000150: 532b 433d 0288 30bd 86e6 dabc 4356 2fbc
00000160: aa78 07bc 9140 863d e70e bc3b 17ef e73d
00000170: 9cd0 41bc d0c0 d83c c3fd 0abc edab 013d
00000180: 1efd e43d 43f2 ef3d ada3 133d 9919 c73d
00000190: f9c0 953d 1c68 af3d 7148 1abd 34d8 da3d
000001a0: 26f7 743d fcbb 213d f75c 373d 353f 40bc
000001b0: d6c3 6f3d 9f90 413d c8e9 65bd 52a5 f13d
000001c0: 631f d6bc 8c39 13ba 88fd a9bc 8d21 95bd
000001d0: dbe1 923d a9bd 71bc 5b3f 553d 3b3d 80bd
000001e0: db80 263d 2110 583d 5c25 80bd 5c92 afbc
000001f0: e17b 02bd 173e c43d 38df 8cbd 82bf a0bd
-0.0437804 0.08821878 -0.0063024014 -0.016475637 0.081416145 0.098218895 -0.03320321 -0.021974916
0.0765498 0.18601304 -0.011984631 0.08109418 0.08511721 -0.02124468 0.059814367 0.08448134
0.018892605 0.103294596 0.1072536 0.06323076 0.16385634 -0.020502158 -0.04390312 0.047058802
0.08968803 -0.06336697 0.010160998 -0.041104466 0.06542359 -0.043739866 -0.035127304 0.14874487
0.079363905 0.015888402 -0.011007177 -0.007415558 -0.007680382 0.0983586 -0.03737295 0.06364837
0.16305815 -0.023206072 0.13819459 0.022442931 -0.021334903 -0.014282462 -0.006694634 -0.054046426
-0.009200924 0.042240687 -0.05832425 0.06733827 0.062144797 0.03840323 -0.020524584 0.129247
-0.034878936 -0.016698409 0.0035804473 -0.031979013 -0.0064042932 0.08641191 -0.017220626 0.0359913
0.06537552 -0.037348326 0.14350867 0.085463285 0.032787587 -0.021343919 0.042669658 -0.024289664
-0.023130653 -0.00826048 0.025373794 -0.041979983 0.1269502 -0.025977502 -0.014204573 0.13591374
-0.028520362 -0.027067415 0.03932592 0.0914291 0.04764874 -0.043098457 -0.02672125 -0.010701719
-0.008268515 0.06555284 0.005739081 0.113249 -0.0118295215 0.026459128 -0.008483353 0.0316581
0.11181091 0.1171613 0.036044765 0.09721679 0.07312197 0.08564779 -0.03766674 0.10685769
0.05980601 0.039485916 0.044766393 -0.01173382 0.058536373 0.047257062 -0.056131154 0.117991105
-0.026138013 -0.000561618 -0.020750776 -0.0728179 0.07171985 -0.014754691 0.052062374 -0.06261679
0.04065023 0.052749757 -0.06257126 -0.021432094 -0.03185642 0.09582155 -0.06878513 -0.07849027

sequential/dense_1/BiasAdd/ReadVariableOp f4 [10]
00000000: 5a74 2fbd c326 3cbd 505e 0c3d a0ac cd3c
00000010: 4ae2 b6bd ac2e e3bd bc05 db3d 04af 123d
00000020: 89bb 5cbc eef8 c9bc
-0.04283557 -0.045935404 0.03426963 0.025106728 -0.0892988 -0.11092886 0.10694453 0.03581144
-0.013472446 -0.024654832

sequential/dense/MatMul f4 [128, 1600]
00000000: 1eeb 05be 7223 86be 181c 7bbe 135e 73be
00000010: 2544 04be e721 5abc 4b13 80be 57a7 eabd
00000020: dcec 25bd ff4a 81bc 8e01 0b3e c897 693d
00000030: d61d 3fbc 187c 0bbc e65b 9fbe eea0 83bd
00000040: 5cff 7bbd 682a 1bbe 51b3 56bd 6756 22bd
00000050: d10a aa3a 3e16 e6bc fb1e bebe b572 363e
00000060: 8334 3ebe 99d2 cdbe 15a3 95be a01e 2fbd
00000070: 4876 62be 439c 34be d225 c1be 0ea8 d0bc
00000080: 328d 87be eaf1 cd3d 2f76 c93b 641f 463d
00000090: 7e6e 84be 4e94 38be 18dd 12be 5fd2 10be
000000a0: 4a40 953c 4044 183d 7aef 0ebe c2fd 83bd
000000b0: b838 9dbe f863 4bbe 540d 883d ec99 5b3d
000000c0: 2cae 19bd 6b4d e9bc ae32 d6bc 73f5 23be
000000d0: 4167 973d e369 c3bb 51fc 2abe 9e53 6abd
000000e0: 0887 32be 9822 593e 0cff c1bd e66c 4c3e
000000f0: 86dc 8abe b2a0 07be 3e19 1abe 5d2a 23be
00000100: addc 813d 6273 f63c 693c 523d 02c2 663d
00000110: 4c8b 13be 8f29 2a3d 9cc5 55bd 4ee4 073c
00000120: 811d 3dbd a4e9 1b3d 42b8 aabc 48a7 18be
00000130: b1fb 77bc 65c6 afbd 6cfa 173e d0d7 813b
00000140: 0801 623d 6428 b93d 8e66 c63d e1e2 cdbd
00000150: bcac e43d 2931 0fbd 2e3a 8bbe 7ea9 793e
00000160: c359 323d 94c2 95be 05eb eabc c70c fd3d
00000170: 4134 7cbd 466e 84be 1d97 77be 2a83 74bd
00000180: 5ecc 9abe e2ca 973e 6133 cbbc 09aa 2b3e
00000190: 81ba a1bd d436 873e a69f fe3d 72b4 023e
000001a0: fe26 dc3d c701 053e 3a22 283e 0e10 05be
000001b0: 7267 083e b23d 013e c4a2 6a3d f925 b13c
000001c0: 0de9 a0bc 77c5 08bd 55e6 423e c4aa 3ebe
000001d0: 6bf1 943e 87b6 e4bd 9fb3 41bd d0d5 4bbd
000001e0: ef84 813e 55d5 c53d 5434 433c 6bba 9c3e
000001f0: 10bc 2c3c 9aff 583e ab35 6fbb 1131 4c3e
00000200: bbcd a03e 692e b03b db80 103e 3301 e93e
00000210: 31e2 01bd e97a d33d 944f 35bc 349e c6bd
00000220: a60a a1bd a4ab f0bc d920 17be e86e 363d
00000230: 3986 593e 3805 c43c a0b0 a43d a04e df3c
00000240: 8ce6 773e 6496 093e 9ab3 9c3c e708 03be
00000250: 2c12 59be 1a3b 31be d5f6 fa3d fa45 dd3d
00000260: 6fd8 15be 28ae 4e3e bc0b 353e 3574 9b3d
00000270: e218 323e 2a96 a93d ef34 02be fb51 82bc
00000280: e739 2ebe f220 be3c af1b 48be f4d2 ee3b
00000290: deb8 d03d baa4 a83e 3c09 733d b013 483e
000002a0: 94b0 003e fb7f 3b3e 3307 2bbe 3c16 6b3e
000002b0: 2366 3f3e 2d41 4c3e 0184 473e 5a25 913c
000002c0: 9d75 2ebe 2b75 95bd b769 61bb 8a34 783d
000002d0: c071 ee3d 7832 0e3e 2b51 6fbe 7968 b7bc
000002e0: 5e5f 24be b70e 4ebe fbc2 a8bb 7722 7b3d
000002f0: f2cb 0e3e 696b 343e 37c3 24be 41f6 09bd
00000300: 050a dd3d 7fde 4e3d a389 463e e88d 9a3d
00000310: 6a4a 403d a1f3 b23d d142 c0be b1db 8abd
00000320: 50ff 473d 9094 96be 5cfd a0bd ba68 c6bd
00000330: 3884 883d 7459 7ebc 156c 813c 1335 15be
00000340: 1e78 54bd 38f6 6b3e 5b37 293e 9288 80bd
00000350: 32d5 70be ed24 963d 022a 31bd 925d b53c
00000360: 4fd4 62be 101e 813d 3a8d 41bd b421 3dbe
00000370: 9295 203e 7bc9 483c 757e 21bd 6ef2 ed3d
00000380: 3ee1 81be f475 56bd 3dfd 69be 0727 d13d
00000390: 6af1 4cbd 6493 e33c cfb4 603e ddaf 833e
000003a0: 556a 083e f5d8 d83c 3370 df3d 94f0 993b
000003b0: d6dc 57bd 772d 8d3e d4b1 313d 95e9 e1bc
000003c0: 2f38 97bd 4278 a5bd fca2 27be d8fe 78be
000003d0: c5ed b83c dd5a bc3e e666 afbd e811 703d
000003e0: b1e1 12bd 72a2 13bd 7a77 4e3d a3c0 75be
000003f0: 0a84 353d ced2 103e fe4e 04be 38e3 a6be
-0.13077971 -0.26198918 -0.24522436 -0.23766355 -0.1291662 -0.013313747 -0.2501472 -0.11457699
-0.04050909 -0.015782831 0.13574812 0.057029516 -0.011664828 -0.008513473 -0.311248 -0.06427179
-0.061522827 -0.15152895 -0.052417103 -0.03963318 0.0012973194 -0.028086778 -0.3713301 0.17817195
-0.18574719 -0.40199736 -0.29225984 -0.042753816 -0.22115433 -0.17637734 -0.37724167 -0.02547076
-0.2647491 0.10055907 0.006148122 0.04836978 -0.2586555 -0.18025324 -0.14342153 -0.1414275
0.018219132 0.037174463 -0.1395854 -0.06444885 -0.30707335 -0.19862354 0.06643167 0.05361359
-0.03751962 -0.028479299 -0.026147213 -0.160116 0.07392741 -0.0059635504 -0.16697814 -0.05720865
-0.17434323 0.21204603 -0.094724745 0.19963416 -0.2712137 -0.13244894 -0.15048692 -0.15934129
0.06340919 0.030084316 0.051327143 0.056337364 -0.14408606 0.04154354 -0.052190408 0.008294178
-0.046170715 0.038064614 -0.020839814 -0.14907563 -0.0151356915 -0.08582763 0.14841622 0.0039624944
0.055176765 0.09040907 0.096875295 -0.10053039 0.11165759 -0.034958992 -0.27192825 0.24381062
0.043542635 -0.29250014 -0.02867652 0.12355953 -0.06157327 -0.25865382 -0.24178739 -0.0596954
-0.30234045 0.29646975 -0.024804773 0.16764082 -0.07896901 0.26409018 0.12432794 0.12764147
0.10749625 0.12988959 0.16419306 -0.12994406 0.13320711 0.12621191 0.05728413 0.021624552
-0.019642377 -0.033391442 0.19033177 -0.1861983 0.29090437 -0.11167627 -0.04729044 -0.049764454
0.25296733 0.096598305 0.0119143315 0.30610976 0.0105428845 0.21191254 -0.0036500494 0.19940592
0.3140696 0.0053766263 0.14111654 0.45508727 -0.031709854 0.103261776 -0.011066336 -0.096981436
-0.07863359 -0.02937872 -0.14758624 0.044539362 0.21242608 0.02392827 0.08041501 0.027259171
0.2420904 0.13436276 0.01912861 -0.12796365 -0.21198338 -0.17307702 0.12254111 0.108043626
-0.14633344 0.20183623 0.17680258 0.07590524 0.17392305 0.08280595 -0.12715505 -0.015908232
-0.17014275 0.023209069 -0.1954181 0.007288331 0.101915106 0.32938176 0.05933498 0.1953876
0.12567359 0.1831054 -0.16701965 0.229577 0.18691306 0.19946738 0.19483949 0.017718006
-0.17037053 -0.07297739 -0.0034395286 0.06059698 0.1164279 0.1388644 -0.23370807 -0.022388684
-0.16052005 -0.20122801 -0.0051501966 0.061312165 0.13944986 0.17619099 -0.16090094 -0.03368211
0.10792927 0.050505158 0.19388442 0.07546598 0.046945967 0.08737875 -0.37550977 -0.06780184
0.04882747 -0.2941022 -0.078608245 -0.09687944 0.06665844 -0.015524257 0.015798608 -0.14571027
-0.051872365 0.23043144 0.16525023 -0.06276049 -0.23518828 0.07331262 -0.043252952 0.022139344
-0.22151302 0.06304562 -0.047253825 -0.18469888 0.15682057 0.012255068 -0.03942724 0.116185054
-0.2536716 -0.052358583 -0.22850509 0.10212522 -0.050034918 0.027780242 0.21943973 0.2572011
0.13321812 0.02647064 0.10910072 0.0046978686 -0.05270084 0.2757375 0.04338248 -0.0275772
-0.07383763 -0.08079578 -0.16370767 -0.24315965 0.022574315 0.36788073 -0.08564548 0.058610827
-0.035859767 -0.03604359 0.05040691 -0.23999266 0.044315375 0.14142916 -0.12920758 -0.3259523

sequential/dense_1/MatMul f4 [10, 128]
00000000: fed8 4b3e f26e 6bbd 75da 613d 4e83 94bd
00000010: a325 a1be c5ed 51be 56ea 303d 7c5e 863d
00000020: 41d1 303e d773 74be 8cbe 53be 6a1c 3b3e
00000030: 77c9 073e 6085 3bbe 55f9 76be 54a7 6cbe
00000040: 95db c63e 0e48 ff3c 02e4 4b3e 3c77 8fbd
00000050: bd2e 90be b93e 5bbd 6e50 533e 26a8 8abe
00000060: 7faa a8be 1a6f 94be 92aa ff3d 3333 11be
00000070: 0061 5dbe 5f0e ebbe ab6d 953d c561 50bd
00000080: bea3 17be abca 82bc 4030 d1bd d1f1 3cbe
00000090: 5394 39be af0b 48bc 4db6 f8bd 79c1 0c3e
000000a0: cebb 4c3e b0ef 953d bfea e83d 1a81 fcbc
000000b0: 504e 04be f3d9 383d 5d9a 053d 5512 973c
000000c0: 837d 833d 52b7 34be c378 003e cf27 68be
000000d0: 57d1 ec3d dae6 c93d 0bf1 3b3e eb72 9fbe
000000e0: 1444 1dbd 1edd 3b3e c95d 2c3e 0dea 183e
000000f0: 7686 f5bd 543f d2be 83c7 44be 0390 8d3e
00000100: ef0c b73d f335 b2bd adb2 a8bb be46 783e
00000110: 7b08 b33d 2d80 df3b 6a38 463e f2a7 4d3e
00000120: 8936 c13d f81d 16be 056f 093e 007c 603d
00000130: 618a aa3d 8235 debc 7b12 e03d 6a5b b7bb
00000140: 8c05 573e 9c15 c0bc c43e 54ba 687b 993c
00000150: 00af 0bbe 003f 0dbf 77e9 70be f03b f4bd
00000160: 9ede 2c3e 6a6b 4fbe 5ebe 88be 8c00 6d3d
00000170: 1d0f 2cbe 35e9 65be 555f 853c bb19 38bd
00000180: e71e 363e 747a ddbe 21b0 55be 80b5 bfbd
00000190: 0ef2 a63d bf87 a5be 74bd 773e 8a3a 89be
000001a0: d8ad 433e 2daf 243e 9c52 103e ab42 863c
000001b0: eac2 273e 2d57 fcbd 7e05 783d e1c1 e63d
000001c0: 5cc9 fb3c 18fa 043e 41bc 81be 6e0c 253e
000001d0: 18e5 0a3e 54be 383e 2ce1 5dbd d4e7 a63d
000001e0: 3b8b 8c3b 91c0 6dbe 2291 87bd 14f9 983d
000001f0: 3f8d 29bc 58d4 f8bd 5266 283e 0142 0d3e
00000200: 7581 663e 21f5 6c3e 9049 e6bd 593d da3d
00000210: 44c9 a4bd ea1a 9e3d d0df 22bd 3b59 8abc
00000220: 01fb 47bd 31b3 14be aaba d6bd a1ea efbe
00000230: 9033 e0be 8f61 9fbe 3a32 89be f953 80bd
00000240: ed55 983c a07e 583e 2caf 2ebe 0942 eebe
00000250: 0aa8 ccbd 93d7 e93d 906f bbbe 4ee9 fbbd
00000260: 6a95 e73c 2444 2abe d6d9 c5bd 5cd8 1cbe
00000270: 1d67 70be 5c52 99be 7b04 0cbe ba5d b8be
00000280: 3569 99be 35c0 9d3d ff2f 233e 153b 58be
00000290: aa40 963c b5f2 503e 83a5 4fbe a932 9fbe
000002a0: 595b b5be 2b2c e63b d2dd febe bf40 1cbd
000002b0: cfb6 663b 3f97 f4bd 1305 533d 0e75 80be
000002c0: 7c81 1fbd b5c6 cc3e d44b 7dbe 06a9 653e
000002d0: bb80 253e ca43 8e3e 1902 1a3d ee03 f0bd
000002e0: 3d27 773d 2747 0c3c ec48 333e b6a5 a13d
000002f0: 75b9 e3bd 6b7c cc3d dc1d 413e 7051 8fbd
00000300: 6ef2 843e 54dd 833d 13ed 9c3e 32b5 1cbd
00000310: aa53 3bb9 4cec 19be a914 a3be d4bf dc3d
00000320: 31d5 cdbd 1c29 9e3d c94e 243e d347 8fbd
00000330: 56c3 363e 9fe2 4dbc 9878 c1be 6c1f df3d
00000340: 2125 03be ca6e 2ebd 90cb 603e cf13 8ebe
00000350: 0c53 403e 6f7f 0abe bb34 3f3e f842 eb3c
00000360: 69be 223e 2970 343e 1571 533e 0eb9 cebe
00000370: 3d27 713c 9198 313e a725 4c3e e225 26be
00000380: 9a69 c23e 81b3 00bf 4ff8 04bf a910 a33e
00000390: b03f a6be e30d 8d3e 6fe6 b8be 9548 8b3e
000003a0: 09d0 183e 20cf 98bc fcd1 ad3c 7ca1 c4be
000003b0: 722e 283e ccb7 67be 988a b1be 9d97 d9bd
000003c0: 6d62 abbc 6374 b4bb d76c 113e c778 7ebe
000003d0: 18ff 86be 5823 8a3e 514d 55be 5dc8 1d3c
000003e0: 3f29 583e bd19 dabe a48e 2c3d 6925 82be
000003f0: f108 dcbc 3b20 27be 617f 063e c248 263e
0.19906995 -0.057478853 0.055139977 -0.07251607 -0.31474027 -0.20500858 0.04319223 0.0656099
0.17267324 -0.23872314 -0.20678157 0.18272558 0.13260446 -0.18312597 -0.2411855 -0.23110706
0.38839403 0.031162288 0.19911197 -0.07005164 -0.28160658 -0.053526614 0.2063615 -0.27081412
-0.32942578 -0.28991014 0.124837056 -0.14179687 -0.21619034 -0.45909402 0.07296308 -0.05087449
-0.14808556 -0.01596578 -0.10214281 -0.1845162 -0.18122987 -0.012209817 -0.12144146 0.13745679
0.19993517 0.073211074 0.11372899 -0.03082328 -0.12920499 0.045129728 0.032617915 0.018441359
0.06420424 -0.17648056 0.12546067 -0.22671436 0.11563366 0.098584846 0.1835367 -0.31142363
-0.038395002 0.18346068 0.16832651 0.14933033 -0.11988537 -0.4106394 -0.19216733 0.27648935
0.08938014 -0.08701696 -0.005148253 0.24245736 0.08741852 0.0068206997 0.19357458 0.20083597
0.0943423 -0.1465987 0.13421257 0.054805756 0.08327175 -0.027125124 0.10941025 -0.005595614
0.2099821 -0.023447804 -0.0008096511 0.018735602 -0.13640976 -0.55174255 -0.2352656 -0.11925495
0.16881797 -0.20255819 -0.2670774 0.05786185 -0.1680264 -0.22452243 0.01628081 -0.044946413
0.17785226 -0.43257487 -0.20867969 -0.0936079 0.08151637 -0.3233013 0.24193364 -0.26802474
0.19109285 0.1608245 0.14094013 0.016389212 0.16382948 -0.12321315 0.060552113 0.11267448
0.030735664 0.12986028 -0.2533894 0.16118023 0.13563955 0.18041354 -0.05416982 0.081496865
0.0042890585 -0.2321799 -0.06619479 0.07469383 -0.010348617 -0.12149876 0.16445282 0.1379471
0.22510321 0.23140384 -0.112445 0.106562324 -0.08046201 0.07719977 -0.039764225 -0.016888252
-0.04882336 -0.14521481 -0.10484822 -0.46858695 -0.4378934 -0.3112912 -0.26796132 -0.062660165
0.01859566 0.21142054 -0.1705901 -0.46534756 -0.099929884 0.11418071 -0.36608553 -0.12300359
0.028269488 -0.16627556 -0.096606895 -0.1531691 -0.23476835 -0.29945648 -0.13673584 -0.36009008
-0.2996308 0.07702676 0.15936278 -0.21116288 0.018341381 0.20405085 -0.20277981 -0.31093338
-0.35421255 0.007024308 -0.4977861 -0.038147684 0.0035204177 -0.119429104 0.05151851 -0.25089306
-0.038941845 0.3999535 -0.24735957 0.22427759 0.16162388 0.27786094 0.037599657 -0.117194995
0.060340155 0.008561886 0.17508286 0.07892935 -0.111193575 0.09984668 0.18859047 -0.06997955
0.2596621 0.06438699 0.30649623 -0.03825874 -0.00017864877 -0.15031546 -0.318517 0.10778776
-0.10050429 0.07722685 0.16045679 -0.06996121 0.17847952 -0.012566238 -0.37787318 0.10894665
-0.12807132 -0.042586125 0.21952653 -0.27749488 0.1878168 -0.13525175 0.18672459 0.028718457
0.15892948 0.1762091 0.20648606 -0.4037556 0.014718828 0.17343356 0.19936238 -0.16225389
0.37971193 -0.502739 -0.5194139 0.31848648 -0.32470465 0.27549657 -0.36113307 0.27203813
0.14923109 -0.018653452 0.021218292 -0.38404453 0.16423967 -0.22628707 -0.3467605 -0.10624621
-0.020920957 -0.0055070384 0.14201675 -0.2485076 -0.26366496 0.2698009 -0.20830275 0.00963029
0.21109484 -0.42597762 0.04212822 -0.25419167 -0.026859732 -0.16320889 0.13134529 0.16238692
