Exercise11/Homework11/model_quantized.tflite (tflite, 102408 bytes, 5 tensors)

sequential/dense_1/MatMul i1 [10, 64] scale=0.004595705 zero_point=0
00000000: cdc3 2210 2d38 e6ca 01c4 f5cf cdd6 ce25
00000010: 4044 0721 3e1f d10f e3be 0d06 dd00 1b24
00000020: d6fd 2bd6 213e 1d26 c5ad 1cca e6d6 d2cb
00000030: d709 0736 0641 cf0b d2c8 e8d3 2a15 37ff
00000040: a59a c703 36cf e0ef 0fe7 0f20 4b0f 3708
00000050: a924 11dd 302d d54a 4bf3 51c5 3aad 1b39
00000060: cff9 d908 3149 b923 f113 4338 97d6 dffa
00000070: 0d22 f7f3 02bf ee41 dde5 e31e c7fa 2876
00000080: 26f0 42e7 9ff6 3513 d832 02f4 0209 2b3b
00000090: bde3 d812 eff9 cbb8 0d09 2e30 c130 ecf1
000000a0: c122 0c24 d804 15b2 0db5 0319 080c 3714
000000b0: dd30 233d 172a 06b8 02b8 f8c1 1ac5 2811
000000c0: b1e4 3534 f9ea ba09 bc35 2c19 dd37 d3fa
000000d0: fb0c ff0f ca19 423b 00ec c0b5 3308 be35
000000e0: 30c0 0012 0514 14e1 0f16 bd36 d7e2 013e
000000f0: f5ea 28fe b531 11c9 eba8 c20c f52c f1d7
-0.23438095 -0.280338 0.15625396 0.07353128 0.20680672 0.25735947 -0.11948833 -0.24816807
0.004595705 -0.2757423 -0.050552752 -0.22518954 -0.23438095 -0.1930196 -0.22978525 0.17004108
0.2941251 0.31250793 0.032169934 0.15165827 0.2849337 0.14246684 -0.21599813 0.06893557
-0.13327543 -0.30331653 0.059744164 0.02757423 -0.16084968 0.0 0.12408403 0.16544537
-0.1930196 -0.013787115 0.19761531 -0.1930196 0.15165827 0.2849337 0.13327543 0.17463678
-0.2711466 -0.3814435 0.12867974 -0.24816807 -0.11948833 -0.1930196 -0.21140242 -0.24357235
-0.1884239 0.041361343 0.032169934 0.24816807 0.02757423 0.2987208 -0.22518954 0.050552752
-0.21140242 -0.25735947 -0.11029692 -0.20680672 0.1930196 0.0965098 0.25276378 -0.004595705
-0.41820914 -0.4687619 -0.26195517 0.013787115 0.24816807 -0.22518954 -0.14706255 -0.07812698
0.06893557 -0.114892624 0.06893557 0.14706255 0.34467787 0.06893557 0.25276378 0.03676564
-0.39982632 0.16544537 0.07812698 -0.16084968 0.22059384 0.20680672 -0.19761531 0.34008217
0.34467787 -0.059744164 0.3722521 -0.2711466 0.26655087 -0.3814435 0.12408403 0.26195517
-0.22518954 -0.032169934 -0.1792325 0.03676564 0.22518954 0.33548644 -0.32629505 0.16084968
-0.06893557 0.08731839 0.30791223 0.25735947 -0.482549 -0.1930196 -0.15165827 -0.02757423
0.059744164 0.15625396 -0.041361343 -0.059744164 0.00919141 -0.2987208 -0.082722686 0.2987208
-0.16084968 -0.12408403 -0.13327543 0.13787115 -0.26195517 -0.02757423 0.18382819 0.5422932
0.17463678 -0.07353128 0.30331653 -0.114892624 -0.44578338 -0.045957047 0.24357235 0.08731839
-0.18382819 0.22978525 0.00919141 -0.05514846 0.00919141 0.041361343 0.19761531 0.2711466
-0.30791223 -0.13327543 -0.18382819 0.082722686 -0.07812698 -0.032169934 -0.24357235 -0.33089074
0.059744164 0.041361343 0.21140242 0.22059384 -0.2895294 0.22059384 -0.091914095 -0.06893557
-0.2895294 0.15625396 0.05514846 0.16544537 -0.18382819 0.01838282 0.0965098 -0.358465
0.059744164 -0.34467787 0.013787115 0.114892624 0.03676564 0.05514846 0.25276378 0.091914095
-0.16084968 0.22059384 0.16084968 0.280338 0.10570121 0.1930196 0.02757423 -0.33089074
0.00919141 -0.33089074 -0.03676564 -0.2895294 0.11948833 -0.2711466 0.18382819 0.07812698
-0.36306068 -0.12867974 0.24357235 0.23897666 -0.032169934 -0.101105504 -0.32169935 0.041361343
-0.31250793 0.24357235 0.20221101 0.114892624 -0.16084968 0.25276378 -0.20680672 -0.02757423
-0.022978524 0.05514846 -0.004595705 0.06893557 -0.24816807 0.114892624 0.30331653 0.2711466
0.0 -0.091914095 -0.2941251 -0.34467787 0.23438095 0.03676564 -0.30331653 0.24357235
0.22059384 -0.2941251 0.0 0.082722686 0.022978524 0.091914095 0.091914095 -0.14246684
0.06893557 0.101105504 -0.30791223 0.24816807 -0.1884239 -0.13787115 0.004595705 0.2849337
-0.050552752 -0.101105504 0.18382819 -0.00919141 -0.34467787 0.22518954 0.07812698 -0.25276378
-0.0965098 -0.40442201 -0.2849337 0.05514846 -0.050552752 0.20221101 -0.06893557 -0.1884239

sequential/dense/MatMul i1 [64, 576] scale=0.0037556393 zero_point=0
00000000: 1226 0d0a 1414 e10d 0cfa 0ffa fc16 fefc
00000010: 00f1 0eed 0f12 f003 1105 ea03 05e6 18ea
00000020: 16f9 d518 1aff 05e7 02ec 0b0d 16f3 e7f2
00000030: 1aee f400 fbf2 25f9 e50d f81a e1f3 ece6
00000040: 0323 0716 1aef e702 19fb f309 f3f6 ee01
00000050: e7eb fa00 0c0d 0503 2af8 fcfb f206 fafe
00000060: 17e6 f0fc 0113 e216 030b f510 1fd2 02f4
00000070: f201 0c1b 0f09 2902 f6f4 0515 fb2d 040f
00000080: 13e6 091f 2714 e3f5 dced 38f4 f4fa 0cf1
00000090: 0f22 f4f1 d8ef 0ffc 041d 2119 eb09 0e0d
000000a0: f5f6 02f3 0401 ec21 09e8 fcdd 03ea f710
000000b0: 0df7 1bfb 0a22 08f8 0a06 0a0e ffe0 010f
000000c0: 2009 03eb e615 fee9 2517 f313 f11b e2fd
000000d0: 0810 faf2 0af5 1119 ff28 07f5 fbf9 020b
000000e0: f3df 0be9 02e8 e7f2 17fb 04ff fff6 0a0d
000000f0: 00f7 19f9 f013 de15 e205 0bfe 14f2 e8ed
0.06760151 0.14271429 0.048823312 0.037556395 0.07511279 0.07511279 -0.11642482 0.048823312
0.04506767 -0.022533836 0.05633459 -0.022533836 -0.015022557 0.08262406 -0.0075112786 -0.015022557
0.0 -0.05633459 0.05257895 -0.071357146 0.05633459 0.06760151 -0.06009023 0.011266918
0.063845865 0.018778197 -0.08262406 0.011266918 0.018778197 -0.097646624 0.09013534 -0.08262406
0.08262406 -0.026289474 -0.1614925 0.09013534 0.097646624 -0.0037556393 0.018778197 -0.09389098
0.0075112786 -0.07511279 0.04131203 0.048823312 0.08262406 -0.048823312 -0.09389098 -0.05257895
0.097646624 -0.06760151 -0.04506767 0.0 -0.018778197 -0.05257895 0.13895865 -0.026289474
-0.10140226 0.048823312 -0.030045114 0.097646624 -0.11642482 -0.048823312 -0.07511279 -0.097646624
0.011266918 0.13144737 0.026289474 0.08262406 0.097646624 -0.063845865 -0.09389098 0.0075112786
0.09389098 -0.018778197 -0.048823312 0.033800755 -0.048823312 -0.037556395 -0.06760151 0.0037556393
-0.09389098 -0.07886843 -0.022533836 0.0 0.04506767 0.048823312 0.018778197 0.011266918
0.15773685 -0.030045114 -0.015022557 -0.018778197 -0.05257895 0.022533836 -0.022533836 -0.0075112786
0.08637971 -0.097646624 -0.06009023 -0.015022557 0.0037556393 0.071357146 -0.11266918 0.08262406
0.011266918 0.04131203 -0.04131203 0.06009023 0.11642482 -0.17275941 0.0075112786 -0.04506767
-0.05257895 0.0037556393 0.04506767 0.10140226 0.05633459 0.033800755 0.15398121 0.0075112786
-0.037556395 -0.04506767 0.018778197 0.07886843 -0.018778197 0.16900377 0.015022557 0.05633459
0.071357146 -0.097646624 0.033800755 0.11642482 0.14646994 0.07511279 -0.10891354 -0.04131203
-0.13520302 -0.071357146 0.2103158 -0.04506767 -0.04506767 -0.022533836 0.04506767 -0.05633459
0.05633459 0.12769173 -0.04506767 -0.05633459 -0.15022558 -0.063845865 0.05633459 -0.015022557
0.015022557 0.10891354 0.123936094 0.09389098 -0.07886843 0.033800755 0.05257895 0.048823312
-0.04131203 -0.037556395 0.0075112786 -0.048823312 0.015022557 0.0037556393 -0.07511279 0.123936094
0.033800755 -0.09013534 -0.015022557 -0.13144737 0.011266918 -0.08262406 -0.033800755 0.06009023
0.048823312 -0.033800755 0.10140226 -0.018778197 0.037556395 0.12769173 0.030045114 -0.030045114
0.037556395 0.022533836 0.037556395 0.05257895 -0.0037556393 -0.12018046 0.0037556393 0.05633459
0.12018046 0.033800755 0.011266918 -0.07886843 -0.097646624 0.07886843 -0.0075112786 -0.08637971
0.13895865 0.08637971 -0.048823312 0.071357146 -0.05633459 0.10140226 -0.11266918 -0.011266918
0.030045114 0.06009023 -0.022533836 -0.05257895 0.037556395 -0.04131203 0.063845865 0.09389098
-0.0037556393 0.15022558 0.026289474 -0.04131203 -0.018778197 -0.026289474 0.0075112786 0.04131203
-0.048823312 -0.123936094 0.04131203 -0.08637971 0.0075112786 -0.09013534 -0.09389098 -0.05257895
0.08637971 -0.018778197 0.015022557 -0.0037556393 -0.0037556393 -0.037556395 0.037556395 0.048823312
0.0 -0.033800755 0.09389098 -0.026289474 -0.06009023 0.071357146 -0.12769173 0.07886843
-0.11266918 0.018778197 0.04131203 -0.0075112786 0.07511279 -0.05257895 -0.09013534 -0.071357146

sequential/conv2d_2/Conv2D i1 [64, 3, 3, 64]
00000000: eaf5 003e 170d f1f5 16fd fd2b 0f1a 4c16
00000010: 493c e1e2 d611 f9d8 50fd 2c3b 500e 2119
00000020: d513 c915 36ed e600 ee01 1243 1937 1656
00000030: e30f 44f9 f4c3 0aec faed fe07 0601 2c25
00000040: f1c4 3ddc d58a f3e1 fed3 2919 eff3 f27f
00000050: 3c49 acf9 f07b 1454 f44c d9f4 27f7 fb16
00000060: d7fb c430 fb06 11bd ab14 ddef 17f8 e84d
00000070: f00f 2ac7 15ed fbf7 00f7 87ee f9d7 d815
00000080: f4c7 07cb 0d14 13ff 9453 5228 ccb6 3514
00000090: de34 501c 0206 013c 0f01 0a2f ea0a ea3e
000000a0: b901 d63e 23b9 06db f28f f42d 47ed e620
000000b0: c6ea f4cf cfce 26f9 be09 c5d4 f9eb f6b1
000000c0: df01 2625 0be5 2909 fe2d 3612 f0ed 2800
000000d0: f3ec 2938 4216 1b20 4305 0626 10f1 f614
000000e0: fde4 0b41 1d1a 110a eaf6 e4dc 481e 2631
000000f0: df1b 290a 1a0a 57fe f9d2 f620 200d 170b
-22 -11 0 62 23 13 -15 -11
22 -3 -3 43 15 26 76 22
73 60 -31 -30 -42 17 -7 -40
80 -3 44 59 80 14 33 25
-43 19 -55 21 54 -19 -26 0
-18 1 18 67 25 55 22 86
-29 15 68 -7 -12 -61 10 -20
-6 -19 -2 7 6 1 44 37
-15 -60 61 -36 -43 -118 -13 -31
-2 -45 41 25 -17 -13 -14 127
60 73 -84 -7 -16 123 20 84
-12 76 -39 -12 39 -9 -5 22
-41 -5 -60 48 -5 6 17 -67
-85 20 -35 -17 23 -8 -24 77
-16 15 42 -57 21 -19 -5 -9
0 -9 -121 -18 -7 -41 -40 21
-12 -57 7 -53 13 20 19 -1
-108 83 82 40 -52 -74 53 20
-34 52 80 28 2 6 1 60
15 1 10 47 -22 10 -22 62
-71 1 -42 62 35 -71 6 -37
-14 -113 -12 45 71 -19 -26 32
-58 -22 -12 -49 -49 -50 38 -7
-66 9 -59 -44 -7 -21 -10 -79
-33 1 38 37 11 -27 41 9
-2 45 54 18 -16 -19 40 0
-13 -20 41 56 66 22 27 32
67 5 6 38 16 -15 -10 20
-3 -28 11 65 29 26 17 10
-22 -10 -28 -36 72 30 38 49
-33 27 41 10 26 10 87 -2
-7 -46 -10 32 32 13 23 11

sequential/conv2d_1/Conv2D i1 [64, 3, 3, 32]
00000000: 140d de22 f6f7 1621 f3f6 11fe 29fb 0120
00000010: 000e 0f05 f710 f700 10e2 0d12 f80d 06dc
00000020: fdec dd2f 09ee fe1b f105 fdff 1a0b e4d5
00000030: c8f1 0cd1 0815 e10c f6f4 0e14 0c1c 09a4
00000040: 1300 e114 fafc 111a d102 09f9 13f5 ffd7
00000050: e2e2 fdce 0808 fc29 f3f9 f5fa 1613 12e3
00000060: 0de7 03f2 dff8 08ed eb07 fcd1 ddf6 fcea
00000070: 03dd ece2 fd07 e0f0 14d2 00f1 e8e3 17fa
00000080: 10d6 e6ea d6be fdf4 b0f4 fbdd 06ec d4ea
00000090: cffe ddcd f10a eb02 07d8 0707 04e8 0a81
000000a0: fcfc dcf7 d3e2 f700 b101 03d4 0eee f4b9
000000b0: d4e0 f2b4 f1e9 e908 fcd7 e8fc f2ee 00d5
000000c0: 09f4 fc02 1ff0 0403 f603 09ea 0505 ecd5
000000d0: fed1 0fe0 040f 010e 01ea 1409 fff6 17d8
000000e0: 09ed ff19 29be 1313 db0d ffda 28fa f2e6
000000f0: b8e1 e3a7 f7fa ff11 140f 01f7 0a01 08b8
20 13 -34 34 -10 -9 22 33
-13 -10 17 -2 41 -5 1 32
0 14 15 5 -9 16 -9 0
16 -30 13 18 -8 13 6 -36
-3 -20 -35 47 9 -18 -2 27
-15 5 -3 -1 26 11 -28 -43
-56 -15 12 -47 8 21 -31 12
-10 -12 14 20 12 28 9 -92
19 0 -31 20 -6 -4 17 26
-47 2 9 -7 19 -11 -1 -41
-30 -30 -3 -50 8 8 -4 41
-13 -7 -11 -6 22 19 18 -29
13 -25 3 -14 -33 -8 8 -19
-21 7 -4 -47 -35 -10 -4 -22
3 -35 -20 -30 -3 7 -32 -16
20 -46 0 -15 -24 -29 23 -6
16 -42 -26 -22 -42 -66 -3 -12
-80 -12 -5 -35 6 -20 -44 -22
-49 -2 -35 -51 -15 10 -21 2
7 -40 7 7 4 -24 10 -127
-4 -4 -36 -9 -45 -30 -9 0
-79 1 3 -44 14 -18 -12 -71
-44 -32 -14 -76 -15 -23 -23 8
-4 -41 -24 -4 -14 -18 0 -43
9 -12 -4 2 31 -16 4 3
-10 3 9 -22 5 5 -20 -43
-2 -47 15 -32 4 15 1 14
1 -22 20 9 -1 -10 23 -40
9 -19 -1 25 41 -66 19 19
-37 13 -1 -38 40 -6 -14 -26
-72 -31 -29 -89 -9 -6 -1 17
20 15 1 -9 10 1 8 -72

sequential/conv2d/Conv2D i1 [32, 3, 3, 1]
00000000: 1aa5 870b 2c63 237f 505b 810b c014 32dd
00000010: 6eb3 8c81 bff1 ce04 d3f9 27bb 81d0 11f8
00000020: 0b09 14f6 160d 35a6 a2ef 81a6 e9c2 b27f
00000030: d237 f6c7 fc34 402a cc4a 5615 9c1e 812c
00000040: aeb4 2fd7 8105 5a6c 9f71 d8b8 323b 8141
00000050: 3881 3629 f552 046e 99eb 0a31 c6b9 427f
00000060: f389 773f 2583 7f12 956b 1b84 aac7 81fe
00000070: e23c 4b5a 4215 df0d 816c 21e1 1f04 13c8
00000080: 492a 8143 f21f aa7f 98f0 4aa2 091f d513
00000090: 1f12 da14 539f df7f a47f e1a8 1117 de18
000000a0: 26c2 3016 12fd e792 3b45 8113 45b1 8f7f
000000b0: fdcc 76b4 dc6b fa83 187f b7e6 1e7c 7d4c
000000c0: 22c9 bf8c 8134 cce6 1181 a8f4 030a 104a
000000d0: 4ce2 381a 1fb6 81b4 dd3f 2814 69be da7f
000000e0: d0d9 8281 07b9 b310 04ff e17f 1531 2aa1
000000f0: 42ae be1c 819b 1800 1f40 5c26 4140 2c31
26 -91 -121 11 44 99 35 127
80 91 -127 11 -64 20 50 -35
110 -77 -116 -127 -65 -15 -50 4
-45 -7 39 -69 -127 -48 17 -8
11 9 20 -10 22 13 53 -90
-94 -17 -127 -90 -23 -62 -78 127
-46 55 -10 -57 -4 52 64 42
-52 74 86 21 -100 30 -127 44
-82 -76 47 -41 -127 5 90 108
-97 113 -40 -72 50 59 -127 65
56 -127 54 41 -11 82 4 110
-103 -21 10 49 -58 -71 66 127
-13 -119 119 63 37 -125 127 18
-107 107 27 -124 -86 -57 -127 -2
-30 60 75 90 66 21 -33 13
-127 108 33 -31 31 4 19 -56
73 42 -127 67 -14 31 -86 127
-104 -16 74 -94 9 31 -43 19
31 18 -38 20 83 -97 -33 127
-92 127 -31 -88 17 23 -34 24
38 -62 48 22 18 -3 -25 -110
59 69 -127 19 69 -79 -113 127
-3 -52 118 -76 -36 107 -6 -125
24 127 -73 -26 30 124 125 76
34 -55 -65 -116 -127 52 -52 -26
17 -127 -88 -12 3 10 16 74
76 -30 56 26 31 -74 -127 -76
-35 63 40 20 105 -66 -38 127
-48 -39 -126 -127 7 -71 -77 16
4 -1 -31 127 21 49 42 -95
66 -82 -66 28 -127 -101 24 0
31 64 92 38 65 64 44 49
